…
  File "/opt/tiger/EasyGuard/examples/valley/valley/data/dataset.py", line 293, in read_and_download_img
    img_data.save(img_path, format="PNG")
  File "/usr/local/lib/python3.9/dist-packages/PIL/Image.py", line 2429, in save
    fp = builtins.open(filename, "w+b")
PermissionError: [Errno 13] Permission denied: '/mnt/bn/yangmin-priv-fashionmm/Data/wuji/big_model_train_image_data/nKzHtHeS_m_508c4cfd253ab352091eac97a71fe170_sx_412182_www800-800.png'
PermissionError: [Errno 13] Permission denied: '/mnt/bn/yangmin-priv-fashionmm/Data/wuji/big_model_train_image_data/nKzHtHeS_m_508c4cfd253ab352091eac97a71fe170_sx_412182_www800-800.png'
              (down_proj): Linear(sion denied: '/mnt/bn/yangmin-priv-fashionmm/Data/wuji/big_model_train_image_data/nKzHtHeS_m_508c4cfd253ab352091eac97a71fe170_sx_412182_www800-800.png'
                in_features=11008, out_features=4096, bias=False
                (lora_dropout): ModuleDict(
                  (default): Dropout(p=0.05, inplace=False)
                )
                (lora_A): ModuleDict(
                  (default): Linear(in_features=11008, out_features=16, bias=False)
                )
                (lora_B): ModuleDict(
                  (default): Linear(in_features=16, out_features=4096, bias=False)
                )
                (lora_embedding_A): ParameterDict()
                (lora_embedding_B): ParameterDict()
              )
              (act_fn): SiLUActivation()
            )
            (input_layernorm): LlamaRMSNorm()
            (post_attention_layernorm): LlamaRMSNorm()
          )
        )
        (norm): LlamaRMSNorm()
        (vision_tower): CLIPVisionTower(
          (vision_tower): ChineseCLIPVisionModel(
            (vision_model): ChineseCLIPVisionTransformer(
              (embeddings): ChineseCLIPVisionEmbeddings(
                (patch_embedding): Conv2d(3, 1024, kernel_size=(14, 14), stride=(14, 14), bias=False)
                (position_embedding): Embedding(257, 1024)
              )
              (pre_layrnorm): LayerNorm((1024,), eps=1e-05, elementwise_affine=True)
              (encoder): ChineseCLIPVisionEncoder(
                (layers): ModuleList(
                  (0-23): 24 x ChineseCLIPVisionLayer(
                    (self_attn): ChineseCLIPVisionAttention(
                      (k_proj): Linear(in_features=1024, out_features=1024, bias=True)
                      (v_proj): Linear(in_features=1024, out_features=1024, bias=True)
                      (q_proj): Linear(in_features=1024, out_features=1024, bias=True)
                      (out_proj): Linear(in_features=1024, out_features=1024, bias=True)
                    )
                    (layer_norm1): LayerNorm((1024,), eps=1e-05, elementwise_affine=True)
                    (mlp): ChineseCLIPVisionMLP(
                      (activation_fn): QuickGELUActivation()
                      (fc1): Linear(in_features=1024, out_features=4096, bias=True)
                      (fc2): Linear(in_features=4096, out_features=1024, bias=True)
                    )
                    (layer_norm2): LayerNorm((1024,), eps=1e-05, elementwise_affine=True)
                  )
                )
              )
              (post_layernorm): LayerNorm((1024,), eps=1e-05, elementwise_affine=True)
            )
          )
        )
        (mm_projector): PoolAdapter(
          (mlp): Sequential(
            (0): Linear(in_features=1024, out_features=4096, bias=True)
            (1): GELU(approximate='none')
            (2): Linear(in_features=4096, out_features=4096, bias=True)
          )
        )
      )
      (lm_head): Linear(in_features=4096, out_features=79480, bias=False)
    )
  )
), 'tokenizer': LlamaTokenizer(name_or_path='/mnt/bn/yangmin-priv-fashionmm/Data/sk/checkpoints/valley-chinese-7b-merge-product-continue-pretrain-down-pool-5epoch-v2/checkpoint-12000', vocab_size=79458, model_max_length=2048, is_fast=False, padding_side='right', truncation_side='right', special_tokens={'bos_token': '</s>', 'eos_token': '</s>', 'unk_token': '<unk>', 'pad_token': '[PAD]'}, clean_up_tokenization_spaces=False),  added_tokens_decoder={
…
state = TrainerState(epoch=6.0326365638102135e-06, global_step=1, max_steps=994590, logging_steps=1, eval_steps=500, save_steps=5000, num_train_epochs=6, total_flos=0, log_history=[], best_metric=None, best_model_checkpoint=None, is_local_process_zero=True, is_world_process_zero=True, is_hyper_param_search=False, trial_name=None, trial_params=None)
control = TrainerControl(should_training_stop=False, should_epoch_stop=False, should_save=False, should_evaluate=False, should_log=True)
kwargs = {'model': PeftModelForCausalLM(
  (base_model): LoraModel(
    (model): ValleyProductLlamaForCausalLM(
      (model): ValleyProductLlamaModel(
        (embed_tokens): Embedding(79480, 4096, padding_idx=0)
        (layers): ModuleList(
          (0-31): 32 x LlamaDecoderLayer(
            (self_attn): LlamaAttention(
              (q_proj): Linear(
                in_features=4096, out_features=4096, bias=False
                (lora_dropout): ModuleDict(
                  (default): Dropout(p=0.05, inplace=False)
                )
                (lora_A): ModuleDict(
                  (default): Linear(in_features=4096, out_features=16, bias=False)
                )
                (lora_B): ModuleDict(
                  (default): Linear(in_features=16, out_features=4096, bias=False)
                )
                (lora_embedding_A): ParameterDict()
                (lora_embedding_B): ParameterDict()
              )
              (k_proj): Linear(
                in_features=4096, out_features=4096, bias=False
                (lora_dropout): ModuleDict(
                  (default): Dropout(p=0.05, inplace=False)
                )
                (lora_A): ModuleDict(
                  (default): Linear(in_features=4096, out_features=16, bias=False)
                )
                (lora_B): ModuleDict(
                  (default): Linear(in_features=16, out_features=4096, bias=False)
                )
                (lora_embedding_A): ParameterDict()
                (lora_embedding_B): ParameterDict()
              )
              (v_proj): Linear(
                in_features=4096, out_features=4096, bias=False
                (lora_dropout): ModuleDict(
                  (default): Dropout(p=0.05, inplace=False)
                )
                (lora_A): ModuleDict(
                  (default): Linear(in_features=4096, out_features=16, bias=False)
                )
                (lora_B): ModuleDict(
                  (default): Linear(in_features=16, out_features=4096, bias=False)
                )
                (lora_embedding_A): ParameterDict()
                (lora_embedding_B): ParameterDict()
              )
              (o_proj): Linear(
                in_features=4096, out_features=4096, bias=False
                (lora_dropout): ModuleDict(
                  (default): Dropout(p=0.05, inplace=False)
                )
                (lora_A): ModuleDict(
                  (default): Linear(in_features=4096, out_features=16, bias=False)
                )
                (lora_B): ModuleDict(
                  (default): Linear(in_features=16, out_features=4096, bias=False)
                )
                (lora_embedding_A): ParameterDict()
                (lora_embedding_B): ParameterDict()
              )
              (rotary_emb): LlamaRotaryEmbedding()
            )
            (mlp): LlamaMLP(
              (gate_proj): Linear(
                in_features=4096, out_features=11008, bias=False
                (lora_dropout): ModuleDict(
                  (default): Dropout(p=0.05, inplace=False)
                )
                (lora_A): ModuleDict(
                  (default): Linear(in_features=4096, out_features=16, bias=False)
                )
                (lora_B): ModuleDict(
                  (default): Linear(in_features=16, out_features=11008, bias=False)
                )
                (lora_embedding_A): ParameterDict()
                (lora_embedding_B): ParameterDict()
              )
              (up_proj): Linear(
                in_features=4096, out_features=11008, bias=False
                (lora_dropout): ModuleDict(
                  (default): Dropout(p=0.05, inplace=False)
                )
                (lora_A): ModuleDict(
                  (default): Linear(in_features=4096, out_features=16, bias=False)
                )
                (lora_B): ModuleDict(
                  (default): Linear(in_features=16, out_features=11008, bias=False)
                )
                (lora_embedding_A): ParameterDict()
                (lora_embedding_B): ParameterDict()
              )
              (down_proj): Linear(
                in_features=11008, out_features=4096, bias=False
                (lora_dropout): ModuleDict(
                  (default): Dropout(p=0.05, inplace=False)
                )
                (lora_A): ModuleDict(
                  (default): Linear(in_features=11008, out_features=16, bias=False)
                )
                (lora_B): ModuleDict(
                  (default): Linear(in_features=16, out_features=4096, bias=False)
                )
                (lora_embedding_A): ParameterDict()
                (lora_embedding_B): ParameterDict()
              )
              (act_fn): SiLUActivation()
            )
            (input_layernorm): LlamaRMSNorm()
            (post_attention_layernorm): LlamaRMSNorm()
          )
        )
        (norm): LlamaRMSNorm()
        (vision_tower): CLIPVisionTower(
          (vision_tower): ChineseCLIPVisionModel(
            (vision_model): ChineseCLIPVisionTransformer(
              (embeddings): ChineseCLIPVisionEmbeddings(
                (patch_embedding): Conv2d(3, 1024, kernel_size=(14, 14), stride=(14, 14), bias=False)
                (position_embedding): Embedding(257, 1024)
              )
              (pre_layrnorm): LayerNorm((1024,), eps=1e-05, elementwise_affine=True)
              (encoder): ChineseCLIPVisionEncoder(
                (layers): ModuleList(
                  (0-23): 24 x ChineseCLIPVisionLayer(
                    (self_attn): ChineseCLIPVisionAttention(
                      (k_proj): Linear(in_features=1024, out_features=1024, bias=True)
                      (v_proj): Linear(in_features=1024, out_features=1024, bias=True)
                      (q_proj): Linear(in_features=1024, out_features=1024, bias=True)
                      (out_proj): Linear(in_features=1024, out_features=1024, bias=True)
                    )
                    (layer_norm1): LayerNorm((1024,), eps=1e-05, elementwise_affine=True)
                    (mlp): ChineseCLIPVisionMLP(
                      (activation_fn): QuickGELUActivation()
                      (fc1): Linear(in_features=1024, out_features=4096, bias=True)
                      (fc2): Linear(in_features=4096, out_features=1024, bias=True)
                    )
                    (layer_norm2): LayerNorm((1024,), eps=1e-05, elementwise_affine=True)
                  )
                )
              )
              (post_layernorm): LayerNorm((1024,), eps=1e-05, elementwise_affine=True)
            )
          )
        )
        (mm_projector): PoolAdapter(
          (mlp): Sequential(
            (0): Linear(in_features=1024, out_features=4096, bias=True)
            (1): GELU(approximate='none')
            (2): Linear(in_features=4096, out_features=4096, bias=True)
          )
        )
      )
      (lm_head): Linear(in_features=4096, out_features=79480, bias=False)
    )
  )
), 'tokenizer': LlamaTokenizer(name_or_path='/mnt/bn/yangmin-priv-fashionmm/Data/sk/checkpoints/valley-chinese-7b-merge-product-continue-pretrain-down-pool-5epoch-v2/checkpoint-12000', vocab_size=79458, model_max_length=2048, is_fast=False, padding_side='right', truncation_side='right', special_tokens={'bos_token': '</s>', 'eos_token': '</s>', 'unk_token': '<unk>', 'pad_token': '[PAD]'}, clean_up_tokenization_spaces=False),  added_tokens_decoder={
…
